memref.global "private" @Data : memref<391xf64> = dense<[… >
memref.global "private" @D1Index : memref<391xindex> = dense<[1, 1, 2, 2, 3, 3, 4, 4, 5, 5, 6, 6, 7, 7, 8, 8, 9, 9, 10, 10, 11, 11, 12, 12, 13, 13, 14, 14, 15, 15, 16, 16, 17, 17, 18, 18, 19, 19, 20, 20, 21, 21, 22, 22, 23, 23, 24, 24, 25, 25, 26, 26, 27, 27, 28, 28, 29, 29, 30, 30, 31, 31, 32, 32, 33, 33, 34, 34, 35, 35, 36, 36, 37, 37, 38, 38, 39, 39, 40, 40, 41, 41, 42, 42, 43, 43, 44, 44, 45, 45, 46, 46, 47, 47, 48, 48, 49, 49, 50, 50, 51, 51, 52, 52, 53, 53, 54, 54, 55, 55, 56, 56, 57, 57, 58, 58, 59, 59, 60, 60, 61, 61, 62, 62, 63, 63, 64, 64, 65, 65, 66, 66, 67, 67, 68, 68, 69, 69, 70, 70, 71, 71, 72, 72, 73, 73, 74, 74, 75, 75, 76, 76, 77, 77, 78, 78, 79, 79, 80, 80, 81, 81, 82, 82, 83, 83, 84, 84, 85, 85, 86, 86, 87, 87, 88, 88, 89, 89, 90, 90, 91, 91, 92, 92, 93, 93, 94, 94, 95, 95, 96, 96, 97, 97, 98, 98, 99, 99, 100, 100, 101, 101, 102, 102, 103, 103, 104, 104, 105, 105, 106, 106, 107, 107, 108, 108, 109, 109, 110, 110, 111, 111, 112, 112, 113, 113, 114, 114, 115, 115, 116, 116, 117, 117, 118, 118, 119, 119, 120, 120, 121, 121, 122, 122, 123, 123, 124, 124, 125, 125, 126, 126, 127, 127, 128, 128, 129, 129, 130, 130, 131, 131, 132, 132, 133, 133, 134, 134, 135, 135, 136, 136, 137, 137, 138, 138, 139, 139, 140, 140, 141, 141, 142, 142, 143, 143, 144, 144, 145, 145, 146, 146, 147, 147, 148, 148, 149, 149, 150, 150, 151, 151, 152, 152, 153, 153, 154, 154, 155, 155, 156, 156, 157, 157, 158, 158, 159, 159, 160, 160, 161, 161, 162, 162, 163, 163, 164, 164, 165, 165, 166, 166, 167, 167, 168, 168, 169, 169, 170, 170, 171, 171, 172, 172, 173, 173, 174, 174, 175, 175, 176, 176, 177, 177, 178, 178, 179, 179, 180, 180, 181, 181, 182, 182, 183, 183, 184, 184, 185, 185, 186, 186, 187, 187, 188, 188, 189, 189, 190, 190, 191, 191, 192, 192, 193, 194, 195, 196, 197, 198, 199]>
memref.global "private" @D2Index : memref<391xindex> = dense<[0, 1, 1, 2, 2, 3, 3, 4, 4, 5, 5, 6, 6, 7, 7, 8, 8, 9, 9, 10, 10, 11, 11, 12, 12, 13, 14, 15, 15, 16, 16, 17, 17, 18, 18, 19, 19, 20, 20, 21, 21, 22, 22, 23, 23, 24, 24, 25, 25, 26, 26, 27, 27, 28, 28, 29, 29, 30, 30, 31, 31, 32, 32, 33, 33, 34, 33, 34, 34, 35, 35, 36, 36, 37, 36, 37, 37, 38, 38, 39, 38, 39, 39, 40, 39, 40, 40, 41, 41, 42, 41, 42, 42, 43, 42, 43, 43, 44, 43, 44, 44, 45, 44, 45, 45, 46, 45, 46, 46, 47, 46, 47, 47, 48, 47, 48, 48, 49, 48, 49, 49, 50, 49, 50, 49, 50, 50, 51, 50, 51, 51, 52, 51, 52, 51, 52, 52, 53, 52, 53, 53, 54, 53, 54, 53, 54, 54, 55, 54, 55, 54, 55, 55, 56, 55, 56, 55, 56, 56, 57, 56, 57, 56, 57, 57, 58, 57, 58, 57, 58, 58, 59, 58, 59, 58, 59, 58, 59, 59, 60, 59, 60, 59, 60, 60, 61, 60, 61, 60, 61, 60, 61, 61, 62, 61, 62, 61, 62, 61, 62, 62, 63, 62, 63, 62, 63, 62, 63, 63, 64, 63, 64, 63, 64, 63, 64, 64, 65, 64, 65, 64, 65, 64, 65, 65, 66, 65, 66, 65, 66, 65, 66, 66, 67, 66, 67, 66, 67, 66, 67, 66, 67, 67, 68, 67, 68, 67, 68, 67, 68, 67, 68, 68, 69, 68, 69, 68, 69, 68, 69, 68, 69, 69, 70, 69, 70, 69, 70, 69, 70, 69, 70, 70, 71, 70, 71, 70, 71, 70, 71, 70, 71, 71, 72, 71, 72, 71, 72, 71, 72, 71, 72, 71, 72, 72, 73, 72, 73, 72, 73, 72, 73, 72, 73, 73, 74, 73, 74, 73, 74, 73, 74, 73, 74, 73, 74, 74, 75, 74, 75, 74, 75, 74, 75, 74, 75, 74, 75, 74, 75, 75, 76, 75, 76, 75, 76, 75, 76, 75, 76, 75, 76, 76, 77, 76, 77, 76, 77, 76, 77, 76, 77, 76, 77, 76, 77, 77, 78, 77, 78, 77, 78, 77, 78, 77, 78, 77, 78, 77, 78, 78, 79, 78, 79, 78, 79, 78, 79, 78, 79, 78, 79, 78, 79, 79, 79, 79, 79, 79, 79, 79]>
memref.global "private" @Shape : memref<2xi32> = dense<[201, 80]>
memref.global "private" @padLenMem : memref<2xindex> = dense<[200, 200]>
memref.global "private" @ccMem : memref<400xf64> = dense<[… >
memref.global "private" @chMem : memref<400xf64> = dense<[… >
memref.global "private" @tw0Mem : memref<297xf64> = dense<[… >
memref.global "private" @tw1Mem : memref<72xf64> = dense<[… >
memref.global "private" @tw2Mem : memref<16xf64> = dense<[… >
memref.global "private" @hannMem : memref<400xf64> = dense<[… >
memref.global "private" @testMem : memref<5xf64> = dense<[0.0, 0.0, 0.0, 0.0, 0.0]>

// func.func private @printMemrefF32(memref<*xf32>) -> ()
// func.func private @printMemrefF64(memref<*xf64>) -> ()

#mulf_trait = {
  doc = "tensor trait for arith.mulf operation",
  indexing_maps = [affine_map<(d0) -> (d0)>, affine_map<(d0) -> (d0)>, affine_map<(d0) -> (d0)>],
  iterator_types = ["parallel"]
}

#log10_trait = {
  doc = "tensor trait for math.log10 operation",
  indexing_maps = [affine_map<(d0, d1) -> (d0, d1)>, affine_map<(d0, d1) -> (d0, d1)>],
  iterator_types = ["parallel", "parallel"]
}

#tail_processing_trait = {
  doc = "tensor trait for tail processing",
  indexing_maps = [affine_map<(d0, d1) -> (d0, d1)>, affine_map<(d0, d1) -> (d0, d1)>],
  iterator_types = ["parallel", "parallel"]
}

func.func @padToMaxLen(%batched_speech : tensor<?xf64>) -> tensor<480000xf64>{
  %maxLength = arith.constant 480000 : i64
  %truncation = arith.constant 1 : index // true
  
  // scf.if %condition {  // if %batched_speech length > %max_length, truncate to max_length
  //   func.call @truncate() : () -> ()
  // }

  %c0 = arith.constant 0.0 : f64
  %i1 = arith.constant 1 : index
  %size = tensor.dim %batched_speech, %i1 : tensor<?xf64>
  %i480000 = arith.constant 480000 : index
  %difference = arith.subi %i480000, %size : index
  %result = tensor.pad %batched_speech low[0] high[%difference] {
  ^bb0(%i : index):
    tensor.yield %c0 : f64
  } : tensor<?xf64> to tensor<480000xf64>

  return %result : tensor<480000xf64>
}

func.func @hanning_window() -> tensor<400xf64>{
  %hanningWindow = memref.get_global @hannMem : memref<400xf64>
  %t_res = bufferization.to_tensor %hanningWindow : memref<400xf64>
  return %t_res : tensor<400xf64>
}

func.func @initMelFilter() -> memref<201x80xf64> {
  %data = memref.get_global @Data : memref<391xf64>
  %d1Index = memref.get_global @D1Index : memref<391xindex>
  %d2Index = memref.get_global @D2Index : memref<391xindex>
  %shape = memref.get_global @Shape : memref<2xi32>
  %f0 = arith.constant 0.0 : f64

  %c0 = arith.constant 0 : index
  %c1 = arith.constant 1 : index
  %c16080 = arith.constant 16080 : index

  %initMem = memref.alloc() : memref<16080xf64>
  scf.for %iv = %c0 to %c16080 step %c1 {
    memref.store %f0, %initMem[%iv] : memref<16080xf64>
    scf.yield
  }

  %mem = memref.reshape %initMem(%shape) : (memref<16080xf64>, memref<2xi32>) -> memref<201x80xf64>
  
  %c391 = arith.constant 391 : index
  scf.for %iv = %c0 to %c391 step %c1 {
    %value = memref.load %data[%iv] : memref<391xf64>
    %i1 = memref.load %d1Index[%iv] : memref<391xindex>
    %i2 = memref.load %d2Index[%iv] : memref<391xindex>
    memref.store %value, %mem[%i1, %i2] : memref<201x80xf64>
    scf.yield
  }
  
  func.return %mem : memref<201x80xf64>
}

func.func @padReflect(%array : tensor<?xf64>, %padWidth : tensor<2xindex>) -> tensor<?xf64>{  
  %c0 = arith.constant 0 : index
  %c1 = arith.constant 1 : index
  %before = tensor.extract %padWidth[%c0] : tensor<2xindex>
  %after = tensor.extract %padWidth[%c1] : tensor<2xindex>

  %arrayPadLow = tensor.pad %array low[%before] high[0] {
  ^bb0(%i : index):
    %index = arith.subi %before, %i : index
    %elem = tensor.extract %array[%index] : tensor<?xf64>
    tensor.yield %elem : f64
  } : tensor<?xf64> to tensor<?xf64>

  %arrayPadLowSize = tensor.dim %arrayPadLow, %c0 : tensor<?xf64>
  %symIndex = arith.subi %arrayPadLowSize, %c1 : index
  %result = tensor.pad %arrayPadLow low[0] high[%after] {
  ^bb0(%i : index):
    %sub = arith.subi %i, %symIndex : index
    %index = arith.subi %symIndex, %sub : index
    %elem = tensor.extract %arrayPadLow[%index] : tensor<?xf64>

    tensor.yield %elem : f64
  } : tensor<?xf64> to tensor<?xf64>

  return %result : tensor<?xf64>
}

func.func private @WA(%wa : memref<?xf64>, %x : index, %i : index, %ido : index, %i1 : index) -> f64 {
  %idom1 = arith.subi %ido, %i1 : index
  %tmp1 = arith.muli %x, %idom1 : index
  %index = arith.addi %tmp1, %i : index
  %result = memref.load %wa[%index] : memref<?xf64>
  return %result : f64
}

func.func private @CC(%cc : memref<400xf64>, %a : index, %b : index, %c : index, %ido : index, %l1 : index) -> f64 {
  %tmp1 = arith.muli %l1, %c : index
  %tmp2 = arith.addi %tmp1, %b : index
  %tmp3 = arith.muli %tmp2, %ido : index
  %index = arith.addi %tmp3, %a : index
  %result = memref.load %cc[%index] : memref<400xf64>
  return %result : f64
}

func.func private @CH(%ch : memref<400xf64>, %a : index, %b : index, %c : index, %ido : index, %cdim : index, %toWrite : f64) {
  %tmp1 = arith.muli %cdim, %c : index
  %tmp2 = arith.addi %tmp1, %b : index
  %tmp3 = arith.muli %tmp2, %ido : index
  %index = arith.addi %tmp3, %a : index
  memref.store %toWrite, %ch[%index] : memref<400xf64>
  return
}

func.func private @PM(%c : f64, %d : f64) -> (f64, f64) {
  %a = arith.addf %c, %d : f64
  %b = arith.subf %c, %d : f64
  return %a, %b : f64, f64
}

func.func private @MULPM(%c : f64, %d : f64, %e : f64, %f : f64) -> (f64, f64) {
  %tmp1 = arith.mulf %c, %e : f64
  %tmp2 = arith.mulf %d, %f : f64
  %a = arith.addf %tmp1, %tmp2 : f64
  %tmp3 = arith.mulf %c, %f : f64
  %tmp4 = arith.mulf %d, %e : f64
  %b = arith.subf %tmp3, %tmp4 : f64
  return %a, %b : f64, f64
}

func.func @radf4Extend(%cc : memref<400xf64>, %ch : memref<400xf64>, %wa : memref<?xf64>, %ido : index, %l1 : index, %cdim : index) -> () {
  %i0 = arith.constant 0 : index
  %i1 = arith.constant 1 : index
  %i2 = arith.constant 2 : index
  %i3 = arith.constant 3 : index

  scf.for %k = %i0 to %l1 step %i1 {
    scf.for %i = %i2 to %ido step %i2 {
      %ic = arith.subi %ido, %i : index
      %icm1 = arith.subi %ic, %i1 : index
      %im1 = arith.subi %i, %i1 : index
      %im2 = arith.subi %i, %i2 : index

      %wa0im2 = func.call @WA(%wa, %i0, %im2, %ido, %i1) : (memref<?xf64>, index, index, index, index) -> (f64)
      %wa0im1 = func.call @WA(%wa, %i0, %im1, %ido, %i1) : (memref<?xf64>, index, index, index, index) -> (f64)
      %ccim1k1 = func.call @CC(%cc, %im1, %k, %i1, %ido, %l1) : (memref<400xf64>, index, index, index, index, index) -> (f64)
      %ccik1 = func.call @CC(%cc, %i, %k, %i1, %ido, %l1) : (memref<400xf64>, index, index, index, index, index) -> (f64)
      %cr2_ci2:2 = func.call @MULPM(%wa0im2, %wa0im1, %ccim1k1, %ccik1) : (f64, f64, f64, f64) -> (f64, f64)

      %wa1im2 = func.call @WA(%wa, %i1, %im2, %ido, %i1) : (memref<?xf64>, index, index, index, index) -> (f64)
      %wa1im1 = func.call @WA(%wa, %i1, %im1, %ido, %i1) : (memref<?xf64>, index, index, index, index) -> (f64)
      %ccim1k2 = func.call @CC(%cc, %im1, %k, %i2, %ido, %l1) : (memref<400xf64>, index, index, index, index, index) -> (f64)
      %ccik2 = func.call @CC(%cc, %i, %k, %i2, %ido, %l1) : (memref<400xf64>, index, index, index, index, index) -> (f64)
      %cr3_ci3:2 = func.call @MULPM(%wa1im2, %wa1im1, %ccim1k2, %ccik2) : (f64, f64, f64, f64) -> (f64, f64)

      %wa2im2 = func.call @WA(%wa, %i2, %im2, %ido, %i1) : (memref<?xf64>, index, index, index, index) -> (f64)
      %wa2im1 = func.call @WA(%wa, %i2, %im1, %ido, %i1) : (memref<?xf64>, index, index, index, index) -> (f64)
      %ccim1k3 = func.call @CC(%cc, %im1, %k, %i3, %ido, %l1) : (memref<400xf64>, index, index, index, index, index) -> (f64)
      %ccik3 = func.call @CC(%cc, %i, %k, %i3, %ido, %l1) : (memref<400xf64>, index, index, index, index, index) -> (f64)
      %cr4_ci4:2 = func.call @MULPM(%wa2im2, %wa2im1, %ccim1k3, %ccik3) : (f64, f64, f64, f64) -> (f64, f64)

      %tr1_tr4:2 = func.call @PM(%cr4_ci4#0, %cr2_ci2#0) : (f64, f64) -> (f64, f64)
      %ti1_ti4:2 = func.call @PM(%cr2_ci2#1, %cr4_ci4#1) : (f64, f64) -> (f64, f64)
      %ccim1k0 = func.call @CC(%cc, %im1, %k, %i0, %ido, %l1) : (memref<400xf64>, index, index, index, index, index) -> (f64)
      %tr2_tr3:2 = func.call @PM(%ccim1k0, %cr3_ci3#0) : (f64, f64) -> (f64, f64)
      %ccik0 = func.call @CC(%cc, %i, %k, %i0, %ido, %l1) : (memref<400xf64>, index, index, index, index, index) -> (f64)      
      %ti2_ti3:2 = func.call @PM(%ccik0, %cr3_ci3#1) : (f64, f64) -> (f64, f64)

      %chtmp1:2 = func.call @PM(%tr2_tr3#0, %tr1_tr4#0) : (f64, f64) -> (f64, f64)
      func.call @CH(%ch, %im1, %i0, %k, %ido, %cdim, %chtmp1#0) : (memref<400xf64>, index, index, index, index, index, f64) -> ()
      func.call @CH(%ch, %icm1, %i3, %k, %ido, %cdim, %chtmp1#1) : (memref<400xf64>, index, index, index, index, index, f64) -> ()

      %chtmp2:2 = func.call @PM(%ti1_ti4#0, %ti2_ti3#0) : (f64, f64) -> (f64, f64)
      func.call @CH(%ch, %i, %i0, %k, %ido, %cdim, %chtmp2#0) : (memref<400xf64>, index, index, index, index, index, f64) -> ()
      func.call @CH(%ch, %ic, %i3, %k, %ido, %cdim, %chtmp2#1) : (memref<400xf64>, index, index, index, index, index, f64) -> ()

      %chtmp3:2 = func.call @PM(%tr2_tr3#1, %ti1_ti4#1) : (f64, f64) -> (f64, f64)
      func.call @CH(%ch, %im1, %i2, %k, %ido, %cdim, %chtmp3#0) : (memref<400xf64>, index, index, index, index, index, f64) -> ()
      func.call @CH(%ch, %icm1, %i1, %k, %ido, %cdim, %chtmp3#1) : (memref<400xf64>, index, index, index, index, index, f64) -> ()

      %chtmp4:2 = func.call @PM(%tr1_tr4#1, %ti2_ti3#1) : (f64, f64) -> (f64, f64)
      func.call @CH(%ch, %i, %i2, %k, %ido, %cdim, %chtmp4#0) : (memref<400xf64>, index, index, index, index, index, f64) -> ()
      func.call @CH(%ch, %ic, %i1, %k, %ido, %cdim, %chtmp4#1) : (memref<400xf64>, index, index, index, index, index, f64) -> ()
      
      scf.yield
    }
    scf.yield
  }
  return
}

func.func @radf4(%cc : memref<400xf64>, %ch : memref<400xf64>, %wa : memref<?xf64>, %ido : index, %l1 : index) {
  %cdim = arith.constant 4 : index
  %hsqt2 = arith.constant 0.70710678118654752440 : f64
  %negHsqt2 = arith.constant -0.70710678118654752440 : f64
  %i0 = arith.constant 0 : index
  %i1 = arith.constant 1 : index
  %i2 = arith.constant 2 : index
  %i3 = arith.constant 3 : index
  %idom1 = arith.subi %ido, %i1 : index

  scf.for %k = %i0 to %l1 step %i1 {
    %cc0k3 = func.call @CC(%cc, %i0, %k, %i3, %ido, %l1) : (memref<400xf64>, index, index, index, index, index) -> (f64)
    %cc0k1 = func.call @CC(%cc, %i0, %k, %i1, %ido, %l1) : (memref<400xf64>, index, index, index, index, index) -> (f64)
    %tr1_tmp0:2 = func.call @PM(%cc0k3, %cc0k1) : (f64, f64) -> (f64, f64)
    func.call @CH(%ch, %i0, %i2, %k, %ido, %cdim, %tr1_tmp0#1) : (memref<400xf64>, index, index, index, index, index, f64) -> ()
    
    %cc0k0 = func.call @CC(%cc, %i0, %k, %i0, %ido, %l1) : (memref<400xf64>, index, index, index, index, index) -> (f64)
    %cc0k2 = func.call @CC(%cc, %i0, %k, %i2, %ido, %l1) : (memref<400xf64>, index, index, index, index, index) -> (f64)
    %tr2_tmp1:2 = func.call @PM(%cc0k0, %cc0k2) : (f64, f64) -> (f64, f64)
    func.call @CH(%ch, %idom1, %i1, %k, %ido, %cdim, %tr2_tmp1#1) : (memref<400xf64>, index, index, index, index, index, f64) -> ()
    
    %tmp2_tmp3:2 = func.call @PM(%tr2_tmp1#0, %tr1_tmp0#0) : (f64, f64) -> (f64, f64)
    func.call @CH(%ch, %i0, %i0, %k, %ido, %cdim, %tmp2_tmp3#0) : (memref<400xf64>, index, index, index, index, index, f64) -> ()
    func.call @CH(%ch, %idom1, %i3, %k, %ido, %cdim, %tmp2_tmp3#1) : (memref<400xf64>, index, index, index, index, index, f64) -> ()

    scf.yield
  }

  // if(ido & 1 == 0)
  %reminder = arith.remsi %ido, %i2 : index
  %cond0 = arith.cmpi eq, %reminder, %i0 : index
  scf.if %cond0 {
    scf.for %k = %i0 to %l1 step %i1 {
      %ccidom1k1 = func.call @CC(%cc, %idom1, %k, %i1, %ido, %l1) : (memref<400xf64>, index, index, index, index, index) -> (f64)
      %ccidom1k3 = func.call @CC(%cc, %idom1, %k, %i3, %ido, %l1) : (memref<400xf64>, index, index, index, index, index) -> (f64)
      %tmp0 = arith.addf %ccidom1k1, %ccidom1k3 : f64
      %ti1 = arith.mulf %negHsqt2, %tmp0 : f64

      %tmp1 = arith.subf %ccidom1k1, %ccidom1k3 : f64
      %tr1 = arith.mulf %hsqt2, %tmp1 : f64

      %ccidom1k0 = func.call @CC(%cc, %idom1, %k, %i0, %ido, %l1) : (memref<400xf64>, index, index, index, index, index) -> (f64)
      %tmp2_tmp3:2 = func.call @PM(%ccidom1k0, %tr1) : (f64, f64) -> (f64, f64)
      func.call @CH(%ch, %idom1, %i0, %k, %ido, %cdim, %tmp2_tmp3#0) : (memref<400xf64>, index, index, index, index, index, f64) -> ()
      func.call @CH(%ch, %idom1, %i2, %k, %ido, %cdim, %tmp2_tmp3#1) : (memref<400xf64>, index, index, index, index, index, f64) -> ()

      %ccidom1k2 = func.call @CC(%cc, %idom1, %k, %i2, %ido, %l1) : (memref<400xf64>, index, index, index, index, index) -> (f64)
      %tmp4_tmp5:2 = func.call @PM(%ti1, %ccidom1k2) : (f64, f64) -> (f64, f64)
      func.call @CH(%ch, %i0, %i3, %k, %ido, %cdim, %tmp4_tmp5#0) : (memref<400xf64>, index, index, index, index, index, f64) -> ()
      func.call @CH(%ch, %i0, %i1, %k, %ido, %cdim, %tmp4_tmp5#1) : (memref<400xf64>, index, index, index, index, index, f64) -> ()

      scf.yield
    }
    scf.yield
  }

  // if(ido > 2)
  %cond1 = arith.cmpi sgt, %ido, %i2 : index
  scf.if %cond1 {
    func.call @radf4Extend(%cc, %ch, %wa, %ido, %l1, %cdim) : (memref<400xf64>, memref<400xf64>, memref<?xf64>, index, index, index) -> ()
    
    scf.yield
  }
  
  return 
}

func.func @radf5Extend(%cc : memref<400xf64>, %ch : memref<400xf64>, %wa : memref<?xf64>, %ido : index, %l1 : index, %cdim : index) -> () {
  %tr11 = arith.constant 0.3090169943749474241 : f64
  %tr12 = arith.constant -0.8090169943749474241 : f64
  %ti11 = arith.constant 0.95105651629515357212 : f64
  %ti12 = arith.constant 0.58778525229247312917 : f64
  %i0 = arith.constant 0 : index
  %i1 = arith.constant 1 : index
  %i2 = arith.constant 2 : index
  %i3 = arith.constant 3 : index
  %i4 = arith.constant 4 : index

  scf.for %k = %i0 to %l1 step %i1 {
    scf.for %i = %i2 to %ido step %i2 {
      %ic = arith.subi %ido, %i : index
      %icm1 = arith.subi %ic, %i1 : index
      %im1 = arith.subi %i, %i1 : index
      %im2 = arith.subi %i, %i2 : index

      %wa0im2 = func.call @WA(%wa, %i0, %im2, %ido, %i1) : (memref<?xf64>, index, index, index, index) -> (f64)
      %wa0im1 = func.call @WA(%wa, %i0, %im1, %ido, %i1) : (memref<?xf64>, index, index, index, index) -> (f64)
      %ccim1k1 = func.call @CC(%cc, %im1, %k, %i1, %ido, %l1) : (memref<400xf64>, index, index, index, index, index) -> (f64)
      %ccik1 = func.call @CC(%cc, %i, %k, %i1, %ido, %l1) : (memref<400xf64>, index, index, index, index, index) -> (f64)
      %dr2_di2:2 = func.call @MULPM(%wa0im2, %wa0im1, %ccim1k1, %ccik1) : (f64, f64, f64, f64) -> (f64, f64)

      %wa1im2 = func.call @WA(%wa, %i1, %im2, %ido, %i1) : (memref<?xf64>, index, index, index, index) -> (f64)
      %wa1im1 = func.call @WA(%wa, %i1, %im1, %ido, %i1) : (memref<?xf64>, index, index, index, index) -> (f64)
      %ccim1k2 = func.call @CC(%cc, %im1, %k, %i2, %ido, %l1) : (memref<400xf64>, index, index, index, index, index) -> (f64)
      %ccik2 = func.call @CC(%cc, %i, %k, %i2, %ido, %l1) : (memref<400xf64>, index, index, index, index, index) -> (f64)
      %dr3_di3:2 = func.call @MULPM(%wa1im2, %wa1im1, %ccim1k2, %ccik2) : (f64, f64, f64, f64) -> (f64, f64)

      %wa2im2 = func.call @WA(%wa, %i2, %im2, %ido, %i1) : (memref<?xf64>, index, index, index, index) -> (f64)
      %wa2im1 = func.call @WA(%wa, %i2, %im1, %ido, %i1) : (memref<?xf64>, index, index, index, index) -> (f64)
      %ccim1k3 = func.call @CC(%cc, %im1, %k, %i3, %ido, %l1) : (memref<400xf64>, index, index, index, index, index) -> (f64)
      %ccik3 = func.call @CC(%cc, %i, %k, %i3, %ido, %l1) : (memref<400xf64>, index, index, index, index, index) -> (f64)
      %dr4_di4:2 = func.call @MULPM(%wa2im2, %wa2im1, %ccim1k3, %ccik3) : (f64, f64, f64, f64) -> (f64, f64)

      %wa3im2 = func.call @WA(%wa, %i3, %im2, %ido, %i1) : (memref<?xf64>, index, index, index, index) -> (f64)
      %wa3im1 = func.call @WA(%wa, %i3, %im1, %ido, %i1) : (memref<?xf64>, index, index, index, index) -> (f64)
      %ccim1k4 = func.call @CC(%cc, %im1, %k, %i4, %ido, %l1) : (memref<400xf64>, index, index, index, index, index) -> (f64)
      %ccik4 = func.call @CC(%cc, %i, %k, %i4, %ido, %l1) : (memref<400xf64>, index, index, index, index, index) -> (f64)
      %dr5_di5:2 = func.call @MULPM(%wa3im2, %wa3im1, %ccim1k4, %ccik4) : (f64, f64, f64, f64) -> (f64, f64)

      %cr2_ci5:2 = func.call @PM(%dr5_di5#0, %dr2_di2#0) : (f64, f64) -> (f64, f64)
      %ci2_cr5:2 = func.call @PM(%dr2_di2#1, %dr5_di5#1) : (f64, f64) -> (f64, f64)
      %cr3_ci4:2 = func.call @PM(%dr4_di4#0, %dr3_di3#0) : (f64, f64) -> (f64, f64)
      %ci3_cr4:2 = func.call @PM(%dr3_di3#1, %dr4_di4#1) : (f64, f64) -> (f64, f64)

      %ccim1k0 = func.call @CC(%cc, %im1, %k, %i0, %ido, %l1) : (memref<400xf64>, index, index, index, index, index) -> (f64)
      %tmpch0 = arith.addf %ccim1k0, %cr2_ci5#0 : f64
      %chim10k = arith.addf %tmpch0, %cr3_ci4#0 : f64
      func.call @CH(%ch, %im1, %i0, %k, %ido, %cdim, %chim10k) : (memref<400xf64>, index, index, index, index, index, f64) -> ()

      %ccik0 = func.call @CC(%cc, %i, %k, %i0, %ido, %l1) : (memref<400xf64>, index, index, index, index, index) -> (f64)
      %tmpch1 = arith.addf %ccik0, %ci2_cr5#0 : f64
      %chi0k = arith.addf %tmpch1, %ci3_cr4#0 : f64
      func.call @CH(%ch, %i, %i0, %k, %ido, %cdim, %chi0k) : (memref<400xf64>, index, index, index, index, index, f64) -> ()

      %tmp2 = arith.mulf %tr11, %cr2_ci5#0 : f64
      %tmp3 = arith.addf %ccim1k0, %tmp2 : f64
      %tmp4 = arith.mulf %tr12, %cr3_ci4#0 : f64
      %tr2 = arith.addf %tmp3, %tmp4 : f64

      %tmp5 = arith.mulf %tr11, %ci2_cr5#0 : f64
      %tmp6 = arith.addf %ccik0, %tmp5 : f64
      %tmp7 = arith.mulf %tr12, %ci3_cr4#0 : f64
      %ti2 = arith.addf %tmp6, %tmp7 : f64

      %tmp8 = arith.mulf %tr12, %cr2_ci5#0 : f64
      %tmp9 = arith.addf %ccim1k0, %tmp8 : f64
      %tmp10 = arith.mulf %tr11, %cr3_ci4#0 : f64
      %tr3 = arith.addf %tmp9, %tmp10 : f64

      %tmp11 = arith.mulf %tr12, %ci2_cr5#0 : f64
      %tmp12 = arith.addf %ccik0, %tmp11 : f64
      %tmp13 = arith.mulf %tr11, %ci3_cr4#0 : f64
      %ti3 = arith.addf %tmp12, %tmp13 : f64

      %tr5_tr4:2 = func.call @MULPM(%ci2_cr5#1, %ci3_cr4#1, %ti11, %ti12) : (f64, f64, f64, f64) -> (f64, f64)
      %ti5_ti4:2 = func.call @MULPM(%cr2_ci5#1, %cr3_ci4#1, %ti11, %ti12) : (f64, f64, f64, f64) -> (f64, f64)

      %chtmp1:2 = func.call @PM(%tr2, %tr5_tr4#0) : (f64, f64) -> (f64, f64)
      func.call @CH(%ch, %im1, %i2, %k, %ido, %cdim, %chtmp1#0) : (memref<400xf64>, index, index, index, index, index, f64) -> ()
      func.call @CH(%ch, %icm1, %i1, %k, %ido, %cdim, %chtmp1#1) : (memref<400xf64>, index, index, index, index, index, f64) -> ()

      %chtmp2:2 = func.call @PM(%ti5_ti4#0, %ti2) : (f64, f64) -> (f64, f64)
      func.call @CH(%ch, %i, %i2, %k, %ido, %cdim, %chtmp2#0) : (memref<400xf64>, index, index, index, index, index, f64) -> ()
      func.call @CH(%ch, %ic, %i1, %k, %ido, %cdim, %chtmp2#1) : (memref<400xf64>, index, index, index, index, index, f64) -> ()

      %chtmp3:2 = func.call @PM(%tr3, %tr5_tr4#1) : (f64, f64) -> (f64, f64)
      func.call @CH(%ch, %im1, %i4, %k, %ido, %cdim, %chtmp3#0) : (memref<400xf64>, index, index, index, index, index, f64) -> ()
      func.call @CH(%ch, %icm1, %i3, %k, %ido, %cdim, %chtmp3#1) : (memref<400xf64>, index, index, index, index, index, f64) -> ()

      %chtmp4:2 = func.call @PM(%ti5_ti4#1, %ti3) : (f64, f64) -> (f64, f64)
      func.call @CH(%ch, %i, %i4, %k, %ido, %cdim, %chtmp4#0) : (memref<400xf64>, index, index, index, index, index, f64) -> ()
      func.call @CH(%ch, %ic, %i3, %k, %ido, %cdim, %chtmp4#1) : (memref<400xf64>, index, index, index, index, index, f64) -> ()
      
      scf.yield
    }
    scf.yield
  }
  return
}

func.func @radf5(%cc : memref<400xf64>, %ch : memref<400xf64>, %wa : memref<?xf64>, %ido : index, %l1 : index) {
  %cdim = arith.constant 5 : index
  %tr11 = arith.constant 0.3090169943749474241 : f64
  %tr12 = arith.constant -0.8090169943749474241 : f64
  %ti11 = arith.constant 0.95105651629515357212 : f64
  %ti12 = arith.constant 0.58778525229247312917 : f64
  %i0 = arith.constant 0 : index
  %i1 = arith.constant 1 : index
  %i2 = arith.constant 2 : index
  %i3 = arith.constant 3 : index
  %i4 = arith.constant 4 : index
  %idom1 = arith.subi %ido, %i1 : index

  scf.for %iv = %i0 to %l1 step %i1 {
    %cc0k4 = func.call @CC(%cc, %i0, %iv, %i4, %ido, %l1) : (memref<400xf64>, index, index, index, index, index) -> (f64)
    %cc0k1 = func.call @CC(%cc, %i0, %iv, %i1, %ido, %l1) : (memref<400xf64>, index, index, index, index, index) -> (f64)
    %cr2_ci5:2 = func.call @PM(%cc0k4, %cc0k1) : (f64, f64) -> (f64, f64)
    
    %cc0k3 = func.call @CC(%cc, %i0, %iv, %i3, %ido, %l1) : (memref<400xf64>, index, index, index, index, index) -> (f64)
    %cc0k2 = func.call @CC(%cc, %i0, %iv, %i2, %ido, %l1) : (memref<400xf64>, index, index, index, index, index) -> (f64)
    %cr3_ci4:2 = func.call @PM(%cc0k3, %cc0k2) : (f64, f64) -> (f64, f64)
    
    %cc0k0 = func.call @CC(%cc, %i0, %iv, %i0, %ido, %l1) : (memref<400xf64>, index, index, index, index, index) -> (f64)
    %tmpch0 = arith.addf %cc0k0, %cr2_ci5#0 : f64
    %ch0 = arith.addf %tmpch0, %cr3_ci4#0 : f64
    func.call @CH(%ch, %i0, %i0, %iv, %ido, %cdim, %ch0) : (memref<400xf64>, index, index, index, index, index, f64) -> ()

    %tmpch1 = arith.mulf %tr11, %cr2_ci5#0 : f64
    %tmpch2 = arith.mulf %tr12, %cr3_ci4#0 : f64
    %tmpch3 = arith.addf %cc0k0, %tmpch1 : f64
    %ch1 = arith.addf %tmpch2, %tmpch3 : f64
    func.call @CH(%ch, %idom1, %i1, %iv, %ido, %cdim, %ch1) : (memref<400xf64>, index, index, index, index, index, f64) -> ()

    %tmpch4 = arith.mulf %ti11, %cr2_ci5#1 : f64
    %tmpch5 = arith.mulf %ti12, %cr3_ci4#1 : f64
    %ch2 = arith.addf %tmpch4, %tmpch5 : f64
    func.call @CH(%ch, %i0, %i2, %iv, %ido, %cdim, %ch2) : (memref<400xf64>, index, index, index, index, index, f64) -> ()

    %tmpch6 = arith.mulf %tr12, %cr2_ci5#0 : f64
    %tmpch7 = arith.mulf %tr11, %cr3_ci4#0 : f64
    %tmpch8 = arith.addf %tmpch6, %tmpch7 : f64
    %ch3 = arith.addf %cc0k0, %tmpch8 : f64
    func.call @CH(%ch, %idom1, %i3, %iv, %ido, %cdim, %ch3) : (memref<400xf64>, index, index, index, index, index, f64) -> ()

    %tmpch9 = arith.mulf %ti12, %cr2_ci5#1 : f64
    %tmpch10 = arith.mulf %ti11, %cr3_ci4#1 : f64
    %ch4 = arith.subf %tmpch9, %tmpch10 : f64
    func.call @CH(%ch, %i0, %i4, %iv, %ido, %cdim, %ch4) : (memref<400xf64>, index, index, index, index, index, f64) -> ()
    
    scf.yield
  }

  %condition = arith.cmpi ne, %ido, %i1 : index
  scf.if %condition {
    func.call @radf5Extend(%cc, %ch, %wa, %ido, %l1, %cdim) : (memref<400xf64>, memref<400xf64>, memref<?xf64>, index, index, index) -> ()

    scf.yield
  }
  
  return 
}

func.func @rfft400(%cc : memref<400xf64>) -> () {
  %ch = memref.get_global @chMem : memref<400xf64>
  %wa0 = memref.get_global @tw0Mem : memref<297xf64>
  %wa0Dynamic = memref.cast %wa0 : memref<297xf64> to memref<?xf64>

  %wa1 = memref.get_global @tw1Mem : memref<72xf64>
  %wa1Dynamic = memref.cast %wa1 : memref<72xf64> to memref<?xf64>

  %wa2 = memref.get_global @tw2Mem : memref<16xf64>
  %wa2Dynamic = memref.cast %wa2 : memref<16xf64> to memref<?xf64>

  %i1 = arith.constant 1 : index
  %i4 = arith.constant 4 : index
  %i5 = arith.constant 5 : index
  %i16 = arith.constant 16 : index
  %i25 = arith.constant 25 : index
  %i80 = arith.constant 80 : index
  %i100 = arith.constant 100 : index

  func.call @radf5(%cc, %ch, %wa2Dynamic, %i1, %i80) : (memref<400xf64>, memref<400xf64>, memref<?xf64>, index, index) -> ()
  func.call @radf5(%ch, %cc, %wa2Dynamic, %i5, %i16) : (memref<400xf64>, memref<400xf64>, memref<?xf64>, index, index) -> ()
  func.call @radf4(%cc, %ch, %wa1Dynamic, %i25, %i4) : (memref<400xf64>, memref<400xf64>, memref<?xf64>, index, index) -> ()
  func.call @radf4(%ch, %cc, %wa0Dynamic, %i100, %i1) : (memref<400xf64>, memref<400xf64>, memref<?xf64>, index, index) -> ()

  return
}

// please use memref.alloc() and memref.dealloc for %tmpMem
func.func @absPower(%rfftComplex : memref<400xf64>, %tmpMem : memref<3001x201xf64>, %lineIndex : index) -> () {
  %c0 = arith.constant 0 : index
  %c1 = arith.constant 1 : index
  %c2 = arith.constant 2 : index
  %c200 = arith.constant 200 : index
  %c398 = arith.constant 398 : index
  %c399 = arith.constant 399 : index
  %power = arith.constant 2 : i32

  %firstNum = memref.load %rfftComplex[%c0] : memref<400xf64>
  %firstPow = math.fpowi %firstNum, %power : f64, i32
  memref.store %firstPow, %tmpMem[%lineIndex, %c0] : memref<3001x201xf64>

  %lastNum = memref.load %rfftComplex[%c399] : memref<400xf64>
  %lastPow = math.fpowi %lastNum, %power : f64, i32
  memref.store %lastPow, %tmpMem[%lineIndex, %c200] : memref<3001x201xf64>

  scf.for %i = %c1 to %c398 step %c2 iter_args(%index = %c1) -> (index) {
    %j = arith.addi %i, %c1 : index
    %num1 = memref.load %rfftComplex[%i] : memref<400xf64>
    %num2 = memref.load %rfftComplex[%j] : memref<400xf64>
    %pow1 = math.fpowi %num1, %power : f64, i32
    %pow2 = math.fpowi %num2, %power : f64, i32
    %add = arith.addf %pow1, %pow2 : f64
    memref.store %add, %tmpMem[%lineIndex, %index] : memref<3001x201xf64>

    %indexNext = arith.addi %index, %c1 : index
    scf.yield %indexNext : index
  }
 
  return
}

func.func @spectrogram(%waveformRanked : tensor<480400xf64>, %window : tensor<400xf64>, %melFilters : tensor<201x80xf64>) -> (tensor<80x3001xf64>) {
  %num_frames = arith.constant 3001 : index
  %num_frequency_bins = arith.constant 201 : index
  %spectrogram =  memref.alloc() : memref<3001x201xf64>

  %c0 = arith.constant 0 : index
  %c1 = arith.constant 1 : index
  %hopLength=  arith.constant 160 : index
  %c400 = arith.constant 400 : index

  scf.for %iv = %c0 to %num_frames step %c1 iter_args(%timestep = %c0) -> (index) {
    %buffer = tensor.extract_slice %waveformRanked[%timestep][%c400][1] : tensor<480400xf64> to tensor<?xf64>
    %buffer400 = tensor.cast %buffer : tensor<?xf64> to tensor<400xf64>
    
    %multiplied = linalg.generic #mulf_trait 
      ins(%buffer400, %window : tensor<400xf64>, tensor<400xf64>)
      outs(%buffer400 : tensor<400xf64>) {
      ^bb0(%a : f64, %b : f64, %c : f64):
        %elem = arith.mulf %a, %b : f64
        linalg.yield %elem : f64
    } -> tensor<400xf64>

    %bufferMem = bufferization.to_memref %multiplied : memref<400xf64>
    func.call @rfft400(%bufferMem) : (memref<400xf64>) -> ()

    func.call @absPower(%bufferMem, %spectrogram, %iv) : (memref<400xf64>, memref<3001x201xf64>, index) -> ()

    %timestepNext = arith.addi %timestep, %hopLength : index
    scf.yield %timestepNext : index
  }

  %alloc0 = memref.alloc() : memref<80x201xf64>
  %init0 = bufferization.to_tensor %alloc0 : memref<80x201xf64>

  %mel_filtersT = linalg.transpose
    ins(%melFilters : tensor<201x80xf64>)
    outs(%init0 : tensor<80x201xf64>)
    permutation = [1, 0]

  %gram = bufferization.to_tensor %spectrogram : memref<3001x201xf64>
  %alloc1 = memref.alloc() : memref<201x3001xf64>
  %init1 = bufferization.to_tensor %alloc1 : memref<201x3001xf64>

  %spectrogramT = linalg.transpose
    ins(%gram : tensor<3001x201xf64>)
    outs(%init1 : tensor<201x3001xf64>)
    permutation = [1, 0]
  
  memref.dealloc %spectrogram : memref<3001x201xf64>

  %alloc2 = memref.alloc() : memref<80x3001xf64>
  %init2 = bufferization.to_tensor %alloc2 : memref<80x3001xf64>

  %matMul = linalg.matmul 
    ins(%mel_filtersT, %spectrogramT : tensor<80x201xf64>, tensor<201x3001xf64>)
    outs(%init2 : tensor<80x3001xf64>)
  -> tensor<80x3001xf64>

  memref.dealloc %alloc0 : memref<80x201xf64>
  memref.dealloc %alloc1 : memref<201x3001xf64>

  %c80 = arith.constant 80 : index
  // %tmpNum were used to generate %mel_floor = 1e-10
  %tmpNum = arith.constant 0.00001 : f64
  %mel_floor = arith.mulf %tmpNum, %tmpNum : f64
  %melFloor = tensor.splat %mel_floor : tensor<80x3001xf64>

  %spectrogramMax = linalg.max
    ins(%melFloor, %matMul : tensor<80x3001xf64>, tensor<80x3001xf64>)
    outs(%melFloor : tensor<80x3001xf64>)
  -> tensor<80x3001xf64>

  memref.dealloc %alloc2 : memref<80x3001xf64>

  %spectrogramLog10 = linalg.generic #log10_trait
    ins(%spectrogramMax : tensor<80x3001xf64>)
    outs(%spectrogramMax : tensor<80x3001xf64>) {
      ^bb0(%a : f64, %b : f64):
        %elem = math.log10 %a : f64
        linalg.yield %elem : f64
    } -> tensor<80x3001xf64>
  
  return %spectrogramLog10 : tensor<80x3001xf64>
}

func.func @whisper_preprocessor(%raw_speech : memref<?xf64>) -> (memref<1x80x3000xf32>) {
  // This part initialize the input data, %input_features
  // %raw_speech = memref.get_global @rawSpeechMem : memref<93680xf64>
  // %batched_speech = bufferization.to_tensor  %raw_speech : memref<93680xf64>
  // %input_features = tensor.cast %batched_speech : tensor<93680xf64> to tensor<?xf64>
  %input_features = bufferization.to_tensor  %raw_speech : memref<?xf64>

  // Pad input data with maxLength 480000, generate %paddedInput
  %paddedInput = func.call @padToMaxLen(%input_features) : (tensor<?xf64>) -> (tensor<480000xf64>)

  // Generate mel_filters
  %mel_filters = func.call @initMelFilter() : () -> memref<201x80xf64>
  %melFilters = bufferization.to_tensor %mel_filters : memref<201x80xf64>

  // Pad waveform
  %waveform = tensor.cast %paddedInput : tensor<480000xf64> to tensor<?xf64>
  %padLen = memref.get_global @padLenMem : memref<2xindex>
  %pad = bufferization.to_tensor %padLen : memref<2xindex>
  %waveformPadded = func.call @padReflect(%waveform, %pad) : (tensor<?xf64>, tensor<2xindex>) -> (tensor<?xf64>)
  %waveformRanked = tensor.cast %waveformPadded : tensor<?xf64> to tensor<480400xf64>

  // Gen hanning window
  %window = func.call @hanning_window() : () -> tensor<400xf64>

  // Calculate spectrogram with rfft
  %logSpec = func.call @spectrogram(%waveformRanked, %window, %melFilters) : (tensor<480400xf64>, tensor<400xf64>, tensor<201x80xf64>) -> tensor<80x3001xf64>

  %logSpecCut = tensor.extract_slice %logSpec[0, 0][80, 3000][1, 1] : tensor<80x3001xf64> to tensor<80x3000xf64>

  %c0 = arith.constant 0 : index
  %c1 = arith.constant 1 : index
  %c80 = arith.constant 80 : index
  %c3000 = arith.constant 3000 : index
  %maxInit = arith.constant -10.0 : f64
  %maxNum = scf.for %i = %c0 to %c80 step %c1 iter_args(%maxi = %maxInit) -> f64 {
    %maxNext = scf.for %j = %c0 to %c3000 step %c1 iter_args(%maxj = %maxi) -> f64 {
      %elem = tensor.extract %logSpecCut[%i, %j] : tensor<80x3000xf64>
      %larger = arith.maximumf %elem, %maxj : f64
      scf.yield %larger : f64
    }
    scf.yield %maxNext : f64
  }

  %f8 = arith.constant 8.0 : f64
  %maxNumMinus8 = arith.subf %maxNum, %f8 : f64
  %logSpecFloor = tensor.splat %maxNumMinus8 : tensor<80x3000xf64>

  %logSpecMax = linalg.max
    ins(%logSpecCut, %logSpecFloor : tensor<80x3000xf64>, tensor<80x3000xf64>)
    outs(%logSpecFloor : tensor<80x3000xf64>)
  -> tensor<80x3000xf64>

  %f0 = arith.constant 0.0 : f32
  %f4 = arith.constant 4.0 : f64
  %InputFeaturesF32 = tensor.splat %f0 : tensor<80x3000xf32>

  %result = linalg.generic #tail_processing_trait
    ins(%logSpecMax : tensor<80x3000xf64>)
    outs(%InputFeaturesF32 : tensor<80x3000xf32>) {
    ^bb0(%a : f64, %b : f32):
      %add4 = arith.addf %a, %f4 : f64
      %div4 = arith.divf %add4, %f4 : f64
      %elem = arith.truncf %div4 : f64 to f32
      linalg.yield %elem : f32
    } -> tensor<80x3000xf32>

  %resultExpand = tensor.expand_shape %result [[0, 1], [2]]: tensor<80x3000xf32> into tensor<1x80x3000xf32>

  %resultMem = bufferization.to_memref %resultExpand : memref<1x80x3000xf32>
  
  return %resultMem : memref<1x80x3000xf32>
}
